dqn_6x7/dqn.pth (torch, 93856 bytes, 6 tensors)

fc1.weight f4 [128, 42]
-0.14102189 0.013978935 -0.030311376 -0.093098514 0.046466567 -0.019980961 0.053724524 -0.14233696
0.079641186 -0.010867161 0.058143985 0.08607916 -0.28499946 0.022069965 -0.14861044 -0.069882125
-0.048600115 -0.07096138 -0.16368268 -0.059162524 -0.036147807 -0.06633858 -0.15786405 -0.24191986
-0.15316021 -0.03859571 -0.17491111 0.007334883 -0.08762842 -0.15174352 -0.09018185 -0.10298814
0.12528977 -0.003047032 0.05129336 0.06910055 -0.023670712 -0.15288715 -0.18955912 -0.1613361
-0.137973 0.067506395 -0.18600842 -0.052478142 0.100457795 -0.28239202 -0.03881378 -0.29968563
-0.26446787 -0.18266772 -0.23992372 -0.31486088 -0.07261361 -0.24613197 -0.15135379 0.028945336
-0.19763397 -0.08445387 -0.20423017 -0.29591233 -0.32783836 -0.33966202 0.14977016 -0.17785676
-0.3299566 -0.04562277 -0.041397233 -0.058908883 -0.19369902 0.18721797 -0.124053665 -0.20002088
0.01857315 -0.085035354 -0.11495488 0.05320122 0.05334241 -0.17387585 -0.23024997 0.06915523
-0.17087944 0.098198526 -0.0047731246 -0.07560239 -0.030629871 -0.076427095 0.07083537 -0.33344284
-0.1871165 0.021225326 0.03527743 -0.09506465 -0.1007895 0.15525384 -0.17411819 -0.18096542
-0.23287944 0.0750157 0.014893532 -0.090561934 -0.08817998 -0.08382881 -0.09125032 -0.14165132
0.016305232 -0.16172497 -0.07515628 0.099154264 -0.083753094 -0.1272341 -0.077422164 -0.19998255
0.011194912 0.13601555 -0.036500897 -0.12041487 -0.0026594063 0.0066184686 -0.110524096 0.008778559
-0.28893697 0.010291976 -0.13517202 -0.14866883 0.067648694 0.15362392 -0.14894469 -0.10883825
0.031477824 -0.062323403 0.01403115 -0.19444494 -0.019604694 -0.103838846 0.0150197465 -0.17749031
-0.13654794 -0.050480437 -0.06539953 -0.06428238 -0.052860864 -0.16997036 -0.09403145 0.009452188
-0.08199646 0.0056855567 0.17799464 0.0038956774 -0.08697363 -0.08149008 -0.10776131 0.016844487
-0.13752513 -0.104792915 0.0075880177 -0.14698601 0.054652493 -0.09135632 0.12980057 0.027711228
-0.089650504 -0.03962168 0.007643922 0.051206227 0.06930399 -0.14892726 0.038715232 0.06266828
-0.020942358 -0.021582501 -0.12448877 -0.13671112 -0.145743 -0.19235115 -0.07751679 -0.24993792
-0.27000135 0.11988278 0.09981672 -0.085235715 -0.025245387 -0.23874173 -0.24162309 -0.065041065
-0.050842196 0.00600932 -0.13712457 0.0006104929 0.0035539044 -0.09621572 -0.12383525 0.10739581
0.1311669 -0.0043559945 -0.051082354 0.10213901 -0.23715372 0.024829783 0.0625255 -0.04302469
-0.12229356 0.005858228 0.0072734193 -0.035672445 -0.018882286 0.003274809 -0.087894976 0.1310028
-0.074468486 -0.04360985 0.14865172 -0.103781044 0.12881656 -0.3398475 -0.54904807 -0.19744088
-0.30695003 -0.8145802 -0.41798538 -0.37068984 -0.33228406 -0.53178525 -0.14127354 -0.34926465
-0.97010505 -0.22277702 -0.28478378 -2.4590056 -2.4209306 -0.5005179 -0.25677234 -0.34002793
-0.47819114 0.44772878 -2.8415515 2.4033806 0.15862076 0.49109304 -0.26690486 -0.0455053
0.27222884 -0.6803532 -0.43191364 0.18110971 -0.7741505 -0.27739593 -0.31013492 1.1437951
-0.55000806 -0.48606068 -0.7137898 -2.475811 -0.23586418 -0.22063704 0.060884845 -0.0030681053
00000000: 0b68 10be e707 653c 904f f8bc 6faa bebd
00000010: ba53 3e3d 1daf a3bc 3f0e 5c3d c8c0 11be
00000020: eb1a a33d 2d0c 32bc 6328 6e3d 454a b03d
00000030: 73eb 91be 12cc b43c 562d 18be 5c1e 8fbd
00000040: ea10 47bd 3354 91bd 6f9c 27be 6754 72bd
00000050: b90f 14bd 85dc 87bd 1da7 21be d7b9 77be
00000060: 08d6 1cbe 8916 1ebd e61b 33be 7559 f03b
00000070: 8776 b3bd a762 1bbe 43b1 b8bd 72eb d2bd
00000080: f64b 003e b7b0 47bb fc18 523d 9784 8d3d
00000090: 15e9 c1bc 738e 1cbe c91b 42be 4a35 25be
000000a0: cb48 0dbe cb40 8a3d fe78 3ebe 52f3 56bd
000000b0: d1bc cd3d b095 90be 33fb 1ebd 6570 99be
000000c0: 5568 87be 3f0d 3bbe 90ae 75be 7235 a1be
000000d0: 72b6 94bd 050a 7cbe 7dfc 1abe c51e ed3c
000000e0: 8f60 4abe 27f6 acbd b721 51be d281 97be
000000f0: 6eda a7be 2ee8 adbe 595d 193e 1520 36be
00000100: 12f0 a8be f1de 3abd 2590 29bd 714a 71bd
00000110: 0959 46be 11b6 3f3e d90f febd 46d2 4cbe
00000120: b826 983c 0427 aebd 776d ebbd 86e9 593d
00000130: 927d 5a3d 830c 32be a6c6 6bbe 42a1 8d3d
00000140: 05fb 2ebe 4f1c c93d df67 9cbb 6dd5 9abd
00000150: 7feb fabc cf85 9cbd 2212 913d 05b9 aabe
00000160: 789b 3fbe bce0 ad3c 117f 103d 41b1 c2bd
00000170: ba6a cebd ddfa 1e3e 0a4c 32be 004f 39be
00000180: f377 6ebe d5a1 993d 0004 743c 8978 b9bd
00000190: b597 b4bd 70ae abbd 73e1 babd 0b0d 11be
000001a0: 8d92 853c 3b9b 25be 89eb 99bd 6411 cb3d
000001b0: be86 abbd a849 02be 838f 9ebd 3ac8 4cbe
000001c0: dd6a 373c a947 0b3e f781 15bd 129c f6bd
000001d0: 6f49 2ebb bddf d83b 755a e2bd f2d3 0f3c
000001e0: 8cef 93be ad9f 283c 896a 0abe a43c 18be
000001f0: 668b 8a3d 974f 1d3e f584 18be 97e6 debd
00000200: e4ee 003d d346 7fbd e9e2 653c 931c 47be
00000210: 069a a0bc 76a9 d4bd 6215 763c 05c0 35be
00000220: 39d3 0bbe 93c4 4ebd 30f0 85bd 7ba6 83bd
00000230: a284 58bd b60c 2ebe 9093 c0bd 5add 1a3c
00000240: c3ed a7bd e84d ba3b 3a44 363e 9f4e 7f3b
00000250: 3b1f b2bd 45e4 a6bd f6b1 dcbd 73fd 893c
00000260: 63d3 0cbe ab9d d6bd e8a4 f83b 8083 16be
00000270: 4bdb 5f3d 0619 bbbd 71ea 043e a802 e33c
00000280: af9a b7bd 584a 22bd de79 fa3b 9fbd 513d
00000290: 40ef 8d3d 6380 18be dd93 1e3d 3a58 803d
000002a0: 4f8f abbc c9cd b0bc f8f3 febd 00fe 0bbe
000002b0: a73d 15be b3f7 44be 1fc1 9ebd baef 7fbe
000002c0: 9e3d 8abe 1a85 f53d b56c cc3d 1090 aebd
000002d0: 6acf cebc b678 74be 0b6c 77be 4034 85bd
000002e0: e83f 50bd d4e9 c43b 626a 0cbe 7c09 203a
000002f0: 9fe8 683b bf0c c5bd 569d fdbd 56f2 db3d
00000300: 9e50 063e bbbc 8ebb bb3b 51bd 422e d13d
00000310: 6dd8 72be d467 cb3c 5f0d 803d a83a 30bd
00000320: 0c75 fabd 61f6 bf3b dd55 ee3b 451d 12bd
00000330: 06af 9abc 2e9e 563b 4802 b4bd 9925 063e
00000340: ef82 98bd 3ea0 32bd 2838 183e 288b d4bd
00000350: 7de8 033e 7e00 aebe 6a8e 0cbf f12d 4abe
00000360: 8e28 9dbe 5488 50bf 2e02 d6be 0fcb bdbe
00000370: 2321 aabe 1423 08bf 03aa 10be d1d2 b2be
00000380: ce58 78bf a91f 64be 2ecf 91be 5960 1dc0
00000390: 87f0 1ac0 f121 00bf aa77 83be 2418 aebe
000003a0: 78d5 f4be b53c e53e fbdb 35c0 fdd0 1940
000003b0: 7b6d 223e 8c70 fb3e c1a7 88be c463 3abd
000003c0: 9461 8b3e a12b 2ebf c923 ddbe d374 393e
000003d0: ba2e 46bf d706 8ebe 01ca 9ebe e167 923f
000003e0: 54cd 0cbf f2dc f8be eeba 36bf b073 1ec0
000003f0: 6186 71be adee 61be 6362 793d 4412 49bb

fc1.bias f4 [128]
-0.04126763 -0.1283146 -0.1867639 3.2450774 -0.02567811 2.8320508 -0.13889492 -0.29448092
3.3630245 4.3384037 -0.11305414 -0.22250038 -0.25026798 -0.14143589 -0.16011338 -0.08775584
-0.33972812 -0.05014732 -0.119797505 -0.010760404 -0.26320726 -0.13501361 -0.09258932 -0.4045716
-0.034560297 2.446957 -0.33860478 -0.21294837 -0.23660932 -0.23687318 -0.11701811 -0.07478139
-0.27795875 -0.13708831 -0.14006801 -0.06341025 -0.56628335 -0.20855123 -0.04001171 -0.46950513
-0.46879184 -0.09608574 -0.32482553 -0.1499532 -0.31025174 -0.10606175 -0.13451366 -0.3182546
3.1660028 -0.16780783 -0.058306653 -0.16891973 -0.28259635 -0.32598224 -0.27983868 -0.11365437
-0.21015318 -0.47996733 -0.07360683 -0.15286481 -0.13645881 -0.21594892 -0.0001907466 -0.35503662
-0.21256861 -0.09281306 -0.31998214 -0.27785373 -0.08030397 3.2215247 -0.2448327 0.9150413
-0.22993754 -0.23336776 -0.19688247 3.235342 -0.30262795 -0.20637116 -0.18129341 -0.16368027
1.201219 -0.07112556 -0.31768665 -0.124198936 -0.4259671 2.6238306 3.0746112 -0.10135375
3.2166576 -0.32515094 -0.35704106 -0.4082948 -0.18367933 -0.057535253 -0.14879657 3.856558
-0.4982339 -0.20917495 -0.48681822 -0.1515436 -0.14675495 -0.0024686533 4.479352 3.3867636
-0.28592932 -0.2828797 -0.16111623 -0.28935245 -0.11511514 0.23426327 -0.25281227 -0.2259831
-0.41199705 -0.17284843 -0.3813774 -0.5412416 -0.08190571 3.0123258 -0.26569438 -0.39551258
-0.27111012 3.5543466 -0.13291238 -0.116989344 -0.26707312 -0.2665238 -0.2721468 -0.11776362
00000000: 3f08 29bd e764 03be 093f 3fbe 59af 4f40
00000010: e65a d2bc 5240 3540 783a 0ebe 34c6 96be
00000020: cb3b 5740 34d4 8a40 ee88 e7bd 24d7 63be
00000030: 2023 80be 92d4 10be c3f4 23be 55b9 b3bd
00000040: d8f0 adbe 4767 4dbd 6558 f5bd 684c 30bc
00000050: 1ac3 86be 0241 0abe 789f bdbd 0224 cfbe
00000060: 198f 0dbd f29a 1c40 9b5d adbe 230f 5abe
00000070: b749 72be e28e 72be 31a7 efbd fc26 99bd
00000080: 9c50 8ebe e160 0cbe fd6d 0fbe 3cdd 81bd
00000090: f2f7 10bf 748e 55be 52e3 23bd fa62 f0be
000000a0: 7c05 f0be 9ac8 c4bd 884f a6be 558d 19be
000000b0: 51d9 9ebe e736 d9bd f3bd 09be 44f2 a2be
000000c0: ca9f 4a40 d1d5 2bbe f5d2 6ebd 4bf9 2cbe
000000d0: 78b0 90be 25e7 a6be 0447 8fbe 9fc3 e8bd
000000e0: 6532 57be 47be f5be 2dbf 96bd 9888 1cbe
000000f0: dcbb 0bbe b721 5dbe 2703 48b9 5cc7 b5be
00000100: 96ab 59be c614 bebd b3d4 a3be d842 8ebe
00000110: 6876 a4bd 762d 4e40 6cb5 7abe 2640 6a3f
00000120: bf74 6bbe f5f7 6ebe 8f9b 49be d80f 4f40
00000130: 0df2 9abe f652 53be fba4 39be cd9b 27be
00000140: 8bc1 993f 47aa 91bd d3a7 a2be 035c febd
00000150: 5c18 dabe d7ec 2740 6ec6 4440 8e92 cfbd
00000160: b8dd 4d40 2f7a a6be 16ce b6be 040c d1be
00000170: 6f16 3cbe 16aa 6bbd 215e 18be d9d1 7640
00000180: 8418 ffbe f531 56be 3d40 f9be 3f2e 1bbe
00000190: ee46 16be 21c9 21bb da56 8f40 bcc0 5840
000001a0: 5465 92be 9cd5 90be a7fb 24be 0126 94be
000001b0: 7dc1 ebbd b6e2 6f3e 9c70 81be 1d68 67be
000001c0: 47f1 d2be 2eff 30be e643 c3be cf8e 0abf
000001d0: 2ebe a7bd f2c9 4040 1809 88be a080 cabe
000001e0: f2ce 8abe 6a7a 6340 2f1a 08be 1c98 efbd
000001f0: cfbd 88be cf75 88be d356 8bbe 0e2e f1bd

fc2.weight f4 [128, 128]
0.03288146 -0.0008089982 0.008436627 0.0525204 -0.06537365 -0.29588166 -0.024367454 0.051162668
-0.09240582 -0.012108419 -0.047694877 -0.00862897 0.031540487 -0.0005487836 -0.030821245 -0.047382675
-0.16881272 0.048569784 -0.0630565 -0.06009467 -0.11731193 0.035144184 0.039331988 -0.035990734
-0.104590744 -0.08716866 -0.06064499 -0.08618535 0.084310636 -0.09670499 0.043754898 0.010039093
-0.07338318 0.06026698 0.047407012 -0.041939255 -0.09572334 0.009848345 -0.01673111 0.30015832
-0.12796165 -0.0555657 -0.041609373 0.0015537146 -0.07312619 -0.2097293 0.06671513 -0.03342947
0.00088615116 -0.04229049 0.028640939 -0.046778776 -0.093588755 -0.00356883 -0.04188718 -0.14181751
-0.00015729514 -0.076083995 -0.029937569 -0.059036218 -0.013491167 0.009719632 -0.2125421 -0.09345028
-0.08464595 -0.042887777 -0.0266358 -0.08334965 -0.032284558 0.02463482 -0.073555976 -0.06469021
-0.04212864 -0.11376069 0.060676087 -0.05032 -0.06095166 -0.0012539319 -0.0010680113 -0.015664246
-0.12582941 -0.08754844 0.043069843 -0.04193936 0.03866036 0.014861775 -0.0027967407 0.0051273853
-0.09552614 0.006612946 0.052630063 -0.11520158 0.052497357 0.021676619 0.0066588647 -0.1070397
-0.10291493 -0.09978535 0.33469823 0.0552661 -0.10152989 -0.25363657 -0.04466765 -0.06098448
-0.048653457 -0.07366278 -0.066545345 -0.030595975 -0.10330906 -0.27865526 -0.025456762 0.03841345
-0.037109382 -0.062085114 -0.07078108 -0.15680072 -0.0062393607 -0.049711965 -0.17408182 -0.087605186
-0.38777617 -0.057581052 0.06819396 0.03705349 -0.03352738 -0.050694834 -0.24705684 -0.043911695
-0.09015887 0.058206365 0.044577293 -0.107310526 0.05761941 -0.2692466 -0.021844571 0.09525688
0.044800706 0.032163054 0.023116678 -0.00072297174 -0.042553924 -0.111194775 0.019144231 -0.054010324
-0.053476654 -0.11677723 0.107750475 0.0070470376 -0.1098382 -0.001086718 0.031807356 -0.15742385
-0.078858934 -0.021645628 -0.10522196 0.0017549528 -0.0075158156 -0.118322805 0.045828175 0.03358869
-0.055174734 -0.01641748 -0.009872893 -0.0344904 -0.16071668 0.28508082 0.120485395 -0.15935813
-0.093394846 0.050207563 0.0291526 0.003945063 0.22832014 -0.16270642 0.021478418 -0.053165656
-0.034210164 -0.030912466 0.06274994 -0.012228027 0.0944735 0.01184362 0.019586777 0.012314013
-0.0937899 -0.0680712 -0.08773782 -0.028068995 0.0072846934 0.053958267 -0.12271717 -0.05177902
-0.04413729 -0.06535578 -0.052905556 -0.018882595 0.027366564 0.013297011 0.0018389821 -0.115602486
-0.04948942 0.08741695 -0.08450513 -0.035986923 -0.061608944 -0.021033004 0.06269026 -0.011469395
-0.050964314 -0.15142453 -0.046403367 0.036210973 -0.07882654 -0.06420432 -0.008282451 -0.01022301
-0.015101726 0.06154037 -0.055269312 0.017488172 0.11304394 -0.11236126 -0.055643536 -0.11705653
-0.03607012 -0.0766378 -0.02062494 -0.11234039 -0.009796177 -0.082039095 -0.041659106 0.04209767
0.05315863 -0.14022468 -0.11299427 -0.15060443 0.04669389 -0.19854005 0.031045029 -0.083768
-0.03492941 -0.12687203 -0.17805937 -0.1251146 -0.083979756 -0.039532714 -0.2739841 -0.025861753
-0.07197456 0.014969083 0.011845714 -0.17566389 0.037343215 -0.042264342 -0.013725511 -0.052914705
00000000: b6ae 063d f312 54ba c739 0a3c a21f 573d
00000010: 9fe2 85bd cd7d 97be 419e c7bc f28f 513d
00000020: 433f bdbd 6462 46bc b45b 43bd 8660 0dbc
00000030: 9930 013d 3edc 0fba d67c fcbc 5614 42bd
00000040: 3edd 2cbe 1cf1 463d c423 81bd d425 76bd
00000050: 3d41 f0bd 59f3 0f3d 941a 213d 056b 13bd
00000060: ac33 d6bd 7b85 b2bd e266 78bd f281 b0bd
00000070: 0eab ac3d 440d c6bd 5638 333d 027b 243c
00000080: ec49 96bd 82da 763d db2d 423d 7fc8 2bbd
00000090: 990a c4bd f45a 213c ae0f 89bc 5aae 993e
000000a0: 6108 03be dc98 63bd 976e 2abd 03a6 cb3a
000000b0: 2fc3 95bd 47c3 56be f1a1 883d 57ed 08bd
000000c0: 994c 683a cb38 2dbd 67a0 ea3c 1a9b 3fbd
000000d0: 76ab bfbd 08e3 69bb e491 2bbd 9c38 11be
000000e0: 98ef 24b9 edd1 9bbd a23f f5bc f6cf 71bd
000000f0: 0e0a 5dbc 173f 1f3c a3a4 59be dc62 bfbd
00000100: db5a adbd 18ab 2fbd 5233 dabc 39b3 aabd
00000110: d03c 04bd f6ce c93c 84a4 96bd 4d7c 84bd
00000120: 158f 2cbd 5dfb e8bd 7d87 783d 581c 4ebd
00000130: 73a8 79bd f95a a4ba 83fc 8bba 4e52 80bc
00000140: 6dd9 00be 994c b3bd 016a 303d 9bc8 2bbd
00000150: 535a 1e3d cd7e 733c 8649 37bb a003 a83b
00000160: 35a3 c3bd 69b1 d83b 9f92 573d ceee ebbd
00000170: 7807 573d 2a93 b13c 9b32 da3b a137 dbbd
00000180: 10c5 d2bd 435c ccbd 915d ab3e b55e 623d
00000190: e7ee cfbd a7dc 81be 6df5 36bd ddca 79bd
000001a0: d948 47bd 83dc 96bd ed48 88bd 69a4 fabc
000001b0: b393 d3bd e7ab 8ebe b38a d0bc 6c57 1d3d
000001c0: 0200 18bd f64c 7ebd acf5 90bd 5e90 20be
000001d0: 8d73 ccbb c69e 4bbd 8142 32be 596a b3bd
000001e0: 998a c6be 1cda 6bbd 46a9 8b3d 66c5 173d
000001f0: 0254 09bd 63a5 4fbd 78fc 7cbe c0dc 33bd
00000200: 37a5 b8bd cc69 6e3d ae96 363d 9fc5 dbbd
00000210: 5502 6c3d b1da 89be 63f3 b2bc 0a16 c33d
00000220: f280 373d 68bd 033d 305f bd3c d085 3dba
00000230: 064d 2ebd 16ba e3bd 5dd4 9c3c ee39 5dbd
00000240: 560a 5bbd e628 efbd 48ac dc3d d6ea e63b
00000250: daf2 e0bd 3570 8eba 6e48 023d b833 21be
00000260: cb80 a1bd 2c52 b1bc 9c7e d7bd 7206 e63a
00000270: 3b47 f6bb 3a53 f2bd 53b6 3b3d 4b94 093d
00000280: e7fe 61bd f37d 86bc eac1 21bc ce45 0dbd
00000290: ea92 24be 1df6 913e 0cc1 f63d c72e 23be
000002a0: cc45 bfbd 72a6 4d3d 6fd1 ee3c 9645 813b
000002b0: c1cc 693e 839c 26be 82f3 af3c 3bc4 59bd
000002c0: f51f 0cbd 243c fdbc 0a83 803d 1058 48bc
000002d0: 537b c13d be0b 423c 7374 a03c b7c0 493c
000002e0: eb14 c0bd ea68 8bbd e3af b3bd f3f0 e5bc
000002f0: 70b4 ee3b 5803 5d3d 2453 fbbd 3d16 54bd
00000300: 4ec9 34bd 40d9 85bd 7fb3 58bd acaf 9abc
00000310: d82f e03c b5db 593c 000a f13a ffc0 ecbd
00000320: 6bb5 4abd a807 b33d 0711 adbd 0667 13bd
00000330: a959 7cbd 684d acbc c063 803d 21ea 3bbc
00000340: f5bf 50bd 080f 1bbe 7511 3ebd f551 143d
00000350: cf6f a1bd 8e7d 83bd 1eb3 07bc 697e 27bc
00000360: 3b6d 77bc c111 7c3d 1362 62bd 5b43 8f3c
00000370: 9583 e73d a91d e6bd 7aea 63bd 56bb efbd
00000380: 43be 13bd 47f4 9cbd a2f5 a8bc b812 e6bd
00000390: 2580 20bc 1d04 a8bd bda2 2abd 9b6e 2c3d
000003a0: ddbc 593d 0f97 0fbe 8a69 e7bd 0c38 1abe
000003b0: 1842 3f3d 154e 4bbe 2552 fe3c 8f8e abbd
000003c0: 2412 0fbd beea 01be 3255 36be 0b1e 00be
000003d0: 94fd abbd 0eed 21bd a547 8cbe 07dc d3bc
000003e0: 6667 93bd e240 753c 8714 423c 3ce1 33be
000003f0: 33f5 183d 601d 2dbd f7e0 60bc 17bd 58bd

fc2.bias f4 [128]
-0.78435403 -0.30255026 -0.5965711 -0.6088338 -0.41874573 -0.73707956 -0.9640086 -0.43028656
-0.3940319 -0.50847995 -1.6657921 -0.4295532 -1.3143853 -1.1468505 -0.963075 -0.2265228
-0.26235098 -0.30252427 -0.41369593 -0.46604156 0.51588464 -0.057832867 -0.244562 -0.43579838
-0.4996418 -0.40187055 -0.6209203 -0.79888827 -0.15393388 -0.16907604 -0.6618633 -0.53912556
-0.06027345 -0.2480022 -0.20368752 -0.48506457 -0.25111568 -0.43981767 -0.09786939 -0.5627519
-0.32905713 -0.5363062 -0.28968942 -0.03372914 -0.45960873 -0.42791656 -0.15305182 -0.65944767
-0.47580203 -0.32239506 -0.19207942 -0.6845535 -0.31801564 -0.33116895 -0.49217096 -0.26411283
-0.32908303 -0.60747963 -0.1535166 -0.3684998 -0.50748956 -0.2574718 -0.69065857 -0.083883405
-0.5192057 -0.75704813 -0.036420297 -0.026183497 -0.32855484 -0.5623864 -0.5126719 -0.64461976
-0.55296004 -0.43591532 -0.7779324 -0.64173436 -0.91376424 -0.48228577 -0.02758722 -0.119807325
-0.51438546 -0.64875716 -0.4167585 -0.4970268 -0.07229491 -0.45879528 -1.2079005 -0.71045905
-0.76750636 -0.61899775 -0.060743958 -0.7791906 -0.5374545 -1.0386107 -0.5230667 -0.65793574
-0.37166357 -0.47758022 -0.37710965 -0.5930925 -0.46219543 -0.5083 -0.15470056 -0.41946667
-0.29180294 -0.21725692 -0.35265797 -0.54564714 -0.49981463 -0.59483093 -1.1615826 -0.31574824
-0.56408745 -0.2459761 -0.6163653 -0.37919065 -0.37620252 -0.36178336 -0.5516605 -0.1056356
-0.38804063 -0.69632775 -0.2592878 -0.15968744 -0.43400994 -0.98029757 -0.70902914 -0.51396143
00000000: 6dcb 48bf dee7 9abe e2b8 18bf 88dc 1bbf
00000010: d765 d6be 3fb1 3cbf 45c9 76bf 854e dcbe
00000020: 8dbe c9be be2b 02bf ad38 d5bf 66ee dbbe
00000030: c73d a8bf ffcb 92bf 158c 76bf 98f5 67be
00000040: de52 86be 76e4 9abe f4cf d3be 009d eebe
00000050: 0411 043f 28e2 6cbd 766e 7abe f720 dfbe
00000060: 0dd1 ffbe fac1 cdbe a2f4 1ebf f183 4cbf
00000070: d8a0 1dbe 4522 2dbe e06f 29bf 2204 0abf
00000080: 4be1 76bd 4af4 7dbe 7693 50be 625a f8be
00000090: 3c92 80be c82f e1be bf6f c8bd 8210 10bf
000000a0: 2d7a a8be 5d4b 09bf 2c52 94be 9127 0abd
000000b0: d651 ebbe e117 dbbe 9eb9 1cbe 90d1 28bf
000000c0: 539c f3be f710 a5be 78b0 44be e63e 2fbf
000000d0: f2d2 a2be fa8e a9be d5fd fbbe cc39 87be
000000e0: 927d a8be c983 1bbf 7533 1dbe 01ac bcbe
000000f0: d6ea 01bf 58d3 83be 00cf 30bf 10cb abbd
00000100: aaea 04bf e8cd 41bf 732d 15bd c67e d6bc
00000110: 5738 a8be 8ef8 0fbf 773e 03bf cd05 25bf
00000120: ca8e 0dbf 4b30 dfbe 9426 47bf b448 24bf
00000130: 74ec 69bf 29ee f6be 98fe e1bc 8b5d f5bd
00000140: c4ae 03bf f314 26bf 5f61 d5be 4c7a febe
00000150: 5b0f 94bd 37e7 eabe 7c9c 9abf a5e0 35bf
00000160: 4c7b 44bf a376 1ebf a8ce 78bd 0979 47bf
00000170: 9e96 09bf 32f1 84bf b3e7 05bf 7a6e 28bf
00000180: b04a bebe 6585 f4be 8414 c1be e9d4 17bf
00000190: e1a4 ecbe f31f 02bf d369 1ebe 56c4 d6be
000001a0: 3267 95be 9978 5ebe 968f b4be 88af 0bbf
000001b0: b4e7 ffbe d746 18bf bdae 94bf c1a9 a1be
000001c0: 0968 10bf 29e1 7bbe 1eca 1dbf 4725 c2be
000001d0: 9e9d c0be ab3b b9be 9f39 0dbf 7a57 d8bd
000001e0: 43ad c6be 8942 32bf 5fc1 84be 1b85 23be
000001f0: 8d36 debe c8f4 7abf ef82 35bf fa92 03bf

fc3.weight f4 [7, 128]
0.38357657 -0.19462685 -0.21806258 -0.10561026 0.1895517 0.009589232 0.060016464 -0.29496747
0.13627182 -0.12710746 -0.007069205 0.15020105 0.040306494 -0.16698973 0.20970383 -0.08076105
-0.13465738 0.087897666 0.022863982 -0.14807898 -0.8410475 0.08002197 -0.027740818 -0.0021919748
-0.030092888 -0.07674166 -0.07838691 -0.22101127 -0.20276174 -1.3571515 0.003587093 0.05467333
-0.13142793 -0.15962899 -0.38200063 -0.08029593 -0.23235446 -0.042210396 0.022604205 0.040382367
-0.010368179 0.052964658 -0.120810345 -0.35390422 -0.06573708 0.08056927 -0.13792065 -0.30464393
0.03139971 -0.026613252 0.27105215 0.012987413 -0.017678082 -0.16254415 -0.050414108 0.0025379504
-0.20371781 -0.023808168 0.09946803 -0.15365976 0.07301029 -0.029111434 -0.08420994 0.14271976
-0.18022837 -0.02437781 -0.0021968633 -0.13858338 -0.22907244 -0.14091136 0.17394727 -0.021184262
-0.21498434 -0.10998936 0.19263077 -0.17786804 -0.0074726744 0.082266144 0.21923661 -0.6020634
0.0035108698 0.09074436 0.17072341 0.168612 -0.06251085 0.001685979 -0.1541002 -0.019680757
-0.105536826 0.1347117 -1.6117779 0.09941374 -0.032574993 0.012705206 -0.3539389 5.172554e-05
-0.26823407 -0.15137582 -0.22996211 -0.09769359 0.054480407 0.13870408 0.060721103 0.13149199
-0.1288144 -0.09858471 0.02013827 -0.23584765 0.042906318 -0.045310233 -0.0415284 0.020822898
0.09740225 0.059345156 -0.15292832 -0.070931725 -0.16511111 -0.07593991 0.14316401 -0.35684273
-0.11347398 0.06930704 -0.16210929 -0.2695146 -0.013055005 -0.14470783 -0.01846975 -0.06984874
-0.12471773 0.015432347 -0.086158246 0.15439561 0.028921755 -0.0661967 -0.13872676 0.09539608
0.12645279 0.18532178 0.19704895 -0.056045737 0.15545541 -0.106921956 0.13919213 -0.19663024
0.23794863 -0.07778616 0.06140262 -0.06684073 1.4368521 0.18444617 -0.18818237 -0.08389849
0.17689738 -0.2620407 -0.36144662 -0.035586067 0.06811493 0.13324033 0.01736288 0.07240922
-0.25329503 0.53564864 0.026558006 0.08498396 0.500436 0.13706775 -0.21908617 0.021544337
-0.0667496 0.01822368 0.21816063 -0.3159806 -0.09684533 -0.028168056 0.123395465 0.4255992
-0.18534395 0.074637175 -0.2862468 0.294125 -0.16842996 -0.23257554 0.12529835 -0.020336863
-0.18326236 0.16222923 -0.07941702 0.09866558 0.0052837525 -0.15767542 0.2856847 0.39396295
0.2392765 -0.044812437 -0.19720939 -0.050615884 0.05013425 0.14481358 0.018886948 -0.14647491
-0.03203134 0.1502769 -0.29794747 0.02863172 0.0719779 -0.20415483 -0.26109084 -0.35692224
-0.17372872 -0.1013308 -0.13052966 -0.054362748 0.32768214 0.031273246 0.005883348 0.050906025
-0.078519404 0.046036925 0.49645486 -0.18658638 -0.18172489 -0.012989609 0.10370835 -0.07139086
0.20008783 -0.18597607 -0.09019819 -0.0068290704 -0.02377908 0.01817305 0.18011716 0.25512078
0.508237 -0.42047545 -0.087801166 -0.22751607 0.17142615 -0.1220543 -0.066111214 0.014184308
0.08190424 -0.12121625 0.1395906 0.22097576 -0.1735848 -0.0563955 -0.04693458 0.2869126
-0.051733125 -0.1515376 -0.08245832 0.28504887 0.28837627 0.07739762 -0.08069151 -0.030477766
00000000: 2664 c43e 434c 47be cc4b 5fbe 314a d8bd
00000010: d719 423e 271c 1d3c d3d3 753d fa05 97be
00000020: d78a 0b3e 7528 02be caa4 e7bb 4ece 193e
00000030: 6c18 253d 5bff 2abe 9abc 563e 0d66 a5bd
00000040: a0e3 09be b103 b43d 3f4d bb3c 04a2 17be
00000050: e44e 57bf 8fe2 a33d b640 e3bc 3ca7 0fbb
00000060: 5c85 f6bc bb2a 9dbd 5189 a0bd c750 62be
00000070: c6a0 4fbe 24b7 adbf 6f15 6b3b 24f1 5f3d
00000080: 0b95 06be c875 23be 9695 c3be 3172 a4bd
00000090: 54ee 6dbe cfe4 2cbd 742c b93c fb67 253d
000000a0: 4bdf 29bc 78f1 583d 6a6b f7bd ef32 b5be
000000b0: 2aa1 86bd 8001 a53d 123b 0dbe 4afa 9bbe
000000c0: fb9c 003d 0904 dabc 59c7 8a3e 29c9 543c
000000d0: a0d1 90bc f971 26be 067f 4ebd be53 263b
000000e0: 679b 50be 5909 c3bc e5b5 cb3d fc58 1dbe
000000f0: 6b86 953d 1a7b eebc 4376 acbd 2125 123e
00000100: c98d 38be f9b3 c7bc 40f9 0fbb cde8 0dbe
00000110: f791 6abe 114b 10be 3c1f 323e 9e8a adbc
00000120: db24 5cbe 1a42 e1bd 0041 453e 0a23 36be
00000130: 56dd f4bb 277b a83d 907f 603e d420 1abf
00000140: 9f16 663b 2ed8 b93d 1ed2 2e3e a0a8 2c3e
00000150: b005 80bd 11fc dc3a 71cc 1dbe 8a39 a1bc
00000160: b123 d8bd ddf1 093e bd4e cebf 6e99 cb3d
00000170: 5b6d 05bd 7f29 503c 7b37 b5be e0f3 5838
00000180: fa55 89be 4302 1bbe 307b 6bbe 9413 c8bd
00000190: d926 5f3d 7108 0e3e b1b6 783d d6a5 063e
000001a0: ece7 03be c8e6 c9bd 03f9 a43c 0c82 71be
000001b0: 89be 2f3d 3997 39bd af19 2abd c894 aa3c
000001c0: d57a c73d e813 733d 3e99 1cbe a744 91bd
000001d0: e312 29be 6286 9bbd 9699 123e 17b4 b6be
000001e0: 0c65 e8bd d9f0 8d3d faff 25be d1fd 89be
000001f0: a9e4 55bc 4a2e 14be e04d 97bc db0c 8fbd
00000200: 026c ffbd f4d7 7c3c bc73 b0bd e219 1e3e
00000210: 51ed ec3c 2392 87bd 630e 0ebe 055f c33d
00000220: d77c 013e fec4 3d3e 33c7 493e 3790 65bd
00000230: b42f 1f3e e6f9 dabd 6288 0e3e 7059 49be
00000240: cea8 733e 5a4e 9fbd 5081 7b3d cbe3 88bd
00000250: c5ea b73f 75df 3c3e e1b2 40be f9d2 abbd
00000260: 9624 353e 332a 86be 880f b9be b2c2 11bd
00000270: d77f 8b3d 2770 083e 993c 8e3c 494b 943d
00000280: e3af 81be 4520 093f 2d90 d93c 120c ae3d
00000290: 931c 003f 7d5b 0c3e 2058 60be c07d b03c
000002a0: 04b4 88bd d449 953c 8065 5f3e 36c8 a1be
000002b0: d856 c6bd b2c0 e6bc c3b6 fc3d 23e8 d93e
000002c0: ceca 3dbe 60db 983d f18e 92be 8d97 963e
000002d0: e778 2cbe 4828 6ebe 364e 003e 7e99 a6bc
000002e0: 21a9 3bbe 6b1f 263e 64a5 a2bd 2e11 ca3d
000002f0: 5423 ad3b aa75 21be 4445 923e 83b5 c93e
00000300: e604 753e 3f8d 37bd 42f1 49be 9a52 4fbd
00000310: 9259 4d3d 034a 143e cdb8 9a3c 85fd 15be
00000320: 4b33 03bd 30e2 193e 928c 98be 128d ea3c
00000330: 2669 933d f70d 51be b3ad 85be 83be b6be
00000340: f1e5 31be 8686 cfbd 91a9 05be 79ab 5ebd
00000350: f4c5 a73e 6018 003d 1ac9 c03b d682 503d
00000360: c8ce a0bd 3791 3c3d 552f fe3e 8010 3fbe
00000370: 1716 3abe 5ed2 54bc 0b65 d43d 5f35 92bd
00000380: d3e3 4c3e 8370 3ebe d4b9 b8bd 65c6 dfbb
00000390: 58cc c2bc a6df 943c a270 383e 319f 823e
000003a0: d21b 023f 8f48 d7be 19d1 b3bd f9f9 68be
000003b0: 568a 2f3e 9bf7 f9bd 5165 87bd 4d65 683c
000003c0: 69bd a73d 3a40 f8bd d7f0 0e3e 7847 623e
000003d0: 37c0 31be f8fe 66bd 793e 40bd 35e6 923e
000003e0: 1de6 53bd ac2c 1bbe e8df a8bd edf1 913e
000003f0: 0ea6 933e a582 9e3d 9741 a5bd 82ac f9bc

fc3.bias f4 [7]
-2.1371439 -3.1398833 -3.2726011 -1.778834 -2.765144 -2.7598891 -2.7090468
00000000: f7c6 08c0 d9f3 48c0 4c72 51c0 d5b0 e3bf
00000010: 1ff8 30c0 06a2 30c0 0661 2dc0
