dqn/dqn.pth (torch, 74912 bytes, 6 tensors)

fc1.weight f4 [128, 9]
0	0xbe925736	-0.28582162
1	0x3dd18c76	0.10231869
2	0x3e4bda8e	0.19907591
3	0xbe431696	-0.19051585
4	0x3deed5d0	0.11661875
5	0xbe5a53b3	-0.21320991
6	0xbe08d68e	-0.13363096
7	0xbe82dc80	-0.25558853
8	0xbe8b244e	-0.27176136
9	0xbdbeb903	-0.09312632
10	0x3c1fa98a	0.009745011
11	0xbe8eade4	-0.27867043
12	0xbdb67f07	-0.08910947
13	0xbbe87ac5	-0.0070947134
14	0x3e172ab0	0.14762378
15	0x3e202775	0.15640052
16	0xbe307698	-0.1723274
17	0xbe3d75c6	-0.18501958
18	0xbe88ab90	-0.26693392
19	0xbe9e2cce	-0.30893558
20	0xbdcec5d0	-0.100963235
21	0xbea52feb	-0.3226312
22	0xbd035e60	-0.032072425
23	0x3d1c0b40	0.038096666
24	0xbd2eb580	-0.04265356
25	0xbe164f08	-0.14678586
26	0xbe00bbd0	-0.12571645
27	0xbf00ebc5	-0.50359756
28	0xbeb1bd81	-0.34714893
29	0x3d596fc4	0.053085104
30	0x3cbfff43	0.023437148
31	0x3eaea58e	0.34110683
32	0xbe38c503	-0.18043904
33	0x3d8b4a1b	0.06801244
34	0x3cad60c9	0.021164315
35	0x3e68ad16	0.22722277
36	0xbdc77630	-0.09739339
37	0xbe08fb6f	-0.13377164
38	0x3e82db91	0.2555814
39	0xbe072cde	-0.13200709
40	0xbd4693ec	-0.048480913
41	0xbf05472b	-0.5206172
42	0xbdf72edd	-0.12069485
43	0xbd89b43f	-0.06723832
44	0xbba633e4	-0.005072104
45	0xbe3f2095	-0.18664773
46	0xbe279dcf	-0.16368793
47	0xbe19118d	-0.14948101
48	0xbe5e6431	-0.21717907
49	0x3daa2456	0.08307712
50	0xbe7c1397	-0.24616848
51	0xbd2c3783	-0.042045128
52	0xbea4141e	-0.32046598
53	0x3e49b139	0.19696511
54	0xbea375f0	-0.31925917
55	0xbe445b25	-0.19175394
56	0x3e7a93ca	0.2447044
57	0xbe0df4fa	-0.13862982
58	0x3ccb9c25	0.024854729
59	0x3e2aa4b6	0.16664395
60	0xbecabffe	-0.39599603
61	0x3de91b83	0.113822006
62	0x3e65ff50	0.22460675
63	0xbe91b773	-0.28460273
64	0xbe2ad459	-0.16682567
65	0x3dfc63e6	0.123237416
66	0x3d88fedc	0.066892356
67	0xbd355b93	-0.044276785
68	0xbeb5110b	-0.35364565
69	0x3e117a74	0.14206868
70	0xbe93b0e7	-0.28845903
71	0xbe911dee	-0.28343147
72	0xbe8fb9bf	-0.280714
73	0x3e0ed81b	0.13949625
74	0x3e475813	0.19467191
75	0xbec8239d	-0.3908967
76	0x3c389583	0.011266115
77	0xbf1d26a7	-0.61387104
78	0x3db69ff6	0.08917229
79	0xbd52b129	-0.051438484
80	0x3dad20a4	0.08453491
81	0xbe615437	-0.22004782
82	0x3da4b825	0.08042935
83	0x3e07ed66	0.13274154
84	0xbeb74691	-0.35796025
85	0x3e3a8308	0.18214047
86	0x3d725b61	0.059169177
87	0x3e151acc	0.14561003
88	0xbe14e040	-0.1453867
89	0x3c1b7fb7	0.009490899
90	0xbd9957bb	-0.074874364
91	0x3e7a6ab6	0.2445477
92	0xbe07235b	-0.13197081
93	0xbe958957	-0.29206344
94	0xbe0c4f0e	-0.13702032
95	0x3dc72ae0	0.09724975
96	0xbe82939c	-0.25503242
97	0x3e698796	0.22805628
98	0x3e6b1c90	0.22960114
99	0xbe6e295e	-0.23257968
100	0xbe645a03	-0.22299962
101	0xbd8faa10	-0.07014859
102	0xbe86b1ec	-0.2630762
103	0x3ea16a9c	0.3152665
104	0xbdb6e2eb	-0.0893
105	0xbd8332d6	-0.064061806
106	0xbdd43b3b	-0.1036286
107	0xbe08ed38	-0.13371742
108	0xbb25c7ff	-0.002529621
109	0xbeb2b004	-0.34899914
110	0x3e188395	0.14893945
111	0xbe98e35c	-0.2986096
112	0x3cbf62f9	0.023362624
113	0x3e97b336	0.29628915
114	0xbdb6816f	-0.08911406
115	0x3c0dbb30	0.008650586
116	0xbdf66b2b	-0.120321594
117	0xbe380d73	-0.1797388
118	0xbd41adbb	-0.047284823
119	0x3d88f050	0.06686461
120	0x3cb9ac24	0.02266509
121	0x3cb8f520	0.022577822
122	0xbe47c697	-0.1950935
123	0xbe6b1bcb	-0.22959821
124	0x3e1acdaf	0.15117525
125	0xbeaa7bce	-0.3329758
126	0xbc3fd71e	-0.011709003
127	0xbdea7bce	-0.11449395
128	0x3dc51563	0.0962322
129	0xbe14bba8	-0.1452471
130	0xbeb88f76	-0.36046952
131	0xbe166746	-0.14687833
132	0x3c8271af	0.01592335
133	0x3b72e37b	0.0037061858
134	0xbee9fb3f	-0.45699498
135	0xbecea1cd	-0.4035782
136	0x3df32494	0.11872211
137	0xbeb421dc	-0.35182083
138	0x3d92f6d0	0.07175982
139	0x3d80d752	0.06291069
140	0xbdbf0601	-0.09327317
141	0xbd805a8b	-0.0626727
142	0xbe9d1c22	-0.30685526
143	0xbe0ced21	-0.13762332
144	0xbdf00612	-0.11719908
145	0xbc996b51	-0.01872793
146	0xbeab8761	-0.33501723
147	0xbd4f1f15	-0.05056675
148	0x3d78fb25	0.060786385
149	0xbea5604b	-0.32300028
150	0x3e337aad	0.17527266
151	0xbe897047	-0.26843473
152	0xbda19296	-0.07889287
153	0xbe506245	-0.20349987
154	0xbe8425dc	-0.25810134
155	0x3d380d2e	0.044934444
156	0x3daac06c	0.08337483
157	0x3d7884f0	0.060673654
158	0xbe9312ad	-0.28725186
159	0x3cfbb68d	0.030726695
160	0xbf07597f	-0.52870935
161	0x3d2280e9	0.03967372
162	0xbe0ce6bf	-0.13759898
163	0xbcd04a62	-0.025426093
164	0xbddb36ce	-0.107038125
165	0x3d830009	0.06396491
166	0xbe707208	-0.23481
167	0xbe9b461b	-0.30326924
168	0xbd203d43	-0.039120924
169	0xbe51a4cb	-0.2047302
170	0xbe9e5e18	-0.30931163
171	0xbc0559b5	-0.008139064
172	0xbc15c991	-0.009142295
173	0xbe82cc5b	-0.25546536
174	0xbd6c035f	-0.057620402
175	0x3de96cff	0.113977425
176	0x3dacca90	0.08437073
177	0xbed264eb	-0.4109262
178	0x3d13ebe0	0.03611362
179	0xbdaa5598	-0.08317107
180	0xbcce44d9	-0.025179313
181	0xbe8d24f1	-0.27567247
182	0x3da06dfb	0.07833477
183	0xbebc3a68	-0.3676331
184	0x3e3f19cb	0.18662183
185	0x3e729806	0.23690805
186	0x3dd6ea1c	0.104938716
187	0x3e51e0ec	0.20495957
188	0xbe1d6dab	-0.15373866
189	0xbc12fb39	-0.008971029
190	0xbe59bc56	-0.2126325
191	0xbcfd7b86	-0.03094269
192	0xbdf3312c	-0.11874613
193	0xbe596e3c	-0.21233457
194	0x3d3556e2	0.04427231
195	0x3e1b5ee3	0.15172915
196	0x3eb06425	0.34451404
197	0xbe274bc0	-0.1633749
198	0xbdeaf6db	-0.11472865
199	0xbea22257	-0.31666824
200	0xbe85ce3f	-0.26133916
201	0xbea79764	-0.3273269
202	0xbe6ea9be	-0.23306939
203	0xbe9afb3c	-0.30269802
204	0x3c371856	0.011175236
205	0x3e7e5ddb	0.2484049
206	0xbe5cf350	-0.21577191
207	0xbdd47abb	-0.103749715
208	0xbdeac25b	-0.114628516
209	0x3ea09256	0.31361645
210	0xbea675c0	-0.3251171
211	0xbe489608	-0.19588482
212	0x3e1e51ce	0.15460894
213	0xbcedf5d6	-0.029047888
214	0x3e019f98	0.12658536
215	0xbe98ec13	-0.2986761
216	0xbd80b9ff	-0.06285476
217	0x3ddc4fac	0.10757384
218	0x3b1e0e86	0.0024117543
219	0xbdfbfe2c	-0.12304339
220	0x3e3432c5	0.17597492
221	0xbdfda458	-0.12384862
222	0xbed870dc	-0.42273605
223	0x3dd61e31	0.10454977
224	0x3d1d5867	0.038414385
225	0xbed2a510	-0.41141558
226	0xbd8a9a17	-0.067676716
227	0x3e0de91b	0.13858454
228	0xbd471d70	-0.04861206
229	0xbdd45ec0	-0.10369635
230	0x3db585de	0.08863424
231	0x3ce25b21	0.027631344
232	0x3e15aeab	0.14617412
233	0x3db236aa	0.087018326
234	0xbe828303	-0.2549058
235	0xbed2be65	-0.41160884
236	0xbe86aa37	-0.2630174
237	0xbbd069d0	-0.00636027
238	0x3e8a54da	0.27017862
239	0xbc7179e3	-0.014738533
240	0xbdd5f958	-0.10447949
241	0xbeed9745	-0.46404472
242	0x3eee2629	0.4651349
243	0xbebe9eb1	-0.37230447
244	0xbe2ef84a	-0.17086902
245	0xbe4bfc77	-0.19920526
246	0xbf00b786	-0.50280035
247	0x3ed9a733	0.42510375
248	0x3eb28923	0.34870252
249	0xbeac043f	-0.3359699
250	0xbe1c7a2f	-0.15280984
251	0x3f058679	0.52158314
252	0xbe92da2e	-0.28682083
253	0xbe6af77b	-0.22945969
254	0x3d76dceb	0.060269278
255	0xbe9c707b	-0.30554566

fc1.bias f4 [128]
0	0xbea4685b	-0.32110867
1	0xbe2ab146	-0.16669187
2	0xbe815088	-0.25256753
3	0xbe6855cc	-0.22688979
4	0xbbffd9ed	-0.007807961
5	0xbdfa46e0	-0.122205496
6	0xbe2f38ee	-0.1711156
7	0xbdacca89	-0.08437068
8	0xbb5b8cc7	-0.0033500658
9	0xbc8f6604	-0.0175047
10	0xbe34925a	-0.17633954
11	0xbd4c1826	-0.049827717
12	0xbe304428	-0.172135
13	0xbdff5afe	-0.12468527
14	0xbe9730d0	-0.29529428
15	0xbc31fd1c	-0.010863569
16	0xbe7fb7a0	-0.24972391
17	0xbe984ba7	-0.29745218
18	0xbd96d086	-0.073639914
19	0xbed22ec0	-0.41051292
20	0xbd2a3efe	-0.04156398
21	0xbec7a44a	-0.3899253
22	0xbc683ad6	-0.014174184
23	0xbdff342b	-0.12461122
24	0xbe85699d	-0.2605714
25	0xbe56c991	-0.20975329
26	0xbbd6b7ae	-0.006552658
27	0xbef96e39	-0.48716906
28	0xbe8a5b4b	-0.27022776
29	0xbe3b1df0	-0.18273139
30	0xbd945e77	-0.0724458
31	0xbc94d789	-0.018169181
32	0xbdddea50	-0.10835707
33	0xbe9c5db6	-0.30540246
34	0xbe483275	-0.19550498
35	0xbdea7800	-0.114486694
36	0xbd17424a	-0.036928453
37	0xbccabe67	-0.024748994
38	0xbe4d32af	-0.20038866
39	0xbed45939	-0.4147432
40	0xbe58e005	-0.21179207
41	0xbee6ed9c	-0.45103157
42	0xbe6f52f0	-0.23371482
43	0xbd1ab8b0	-0.037773788
44	0xbe57b925	-0.21066721
45	0xbe4bbbb1	-0.19895817
46	0xbe8289a9	-0.2549565
47	0xbdc71e9f	-0.097226374
48	0xbee8333f	-0.45351598
49	0xbf01ef5d	-0.50755864
50	0xbef491af	-0.47767398
51	0xbe46c748	-0.19411957
52	0xbea281a8	-0.31739545
53	0xbd38cd18	-0.045117468
54	0xbd7f0c75	-0.06226774
55	0xbe9f6fa8	-0.31139874
56	0xbef29874	-0.47381938
57	0xbee55f90	-0.4479947
58	0xbedcdcd3	-0.43137226
59	0xbe227f58	-0.1586889
60	0xbe590a15	-0.21195252
61	0xbe421aca	-0.18955532
62	0xbe77a59c	-0.24184269
63	0xbea1587b	-0.31512818
64	0xbe2797fe	-0.16366574
65	0xbe30b051	-0.1725476
66	0xbe9fe060	-0.31225872
67	0xbde021bc	-0.10943934
68	0xbe14bc9b	-0.14525072
69	0xbe83f6b5	-0.2577416
70	0xbece9ba9	-0.40353134
71	0xbeb3511c	-0.3502282
72	0xbd8720ba	-0.06598039
73	0xbe80e2f8	-0.25173163
74	0xbe2a998d	-0.16660137
75	0xbe993396	-0.2992217
76	0xbd60f0b6	-0.05491706
77	0xbeabb9f7	-0.33540317
78	0xbe1d70b7	-0.15375029
79	0xbde9f8ca	-0.11424406
80	0xbe4fe4ad	-0.20302077
81	0xbe9671cf	-0.29383704
82	0xbeae6340	-0.34060097
83	0xbd9bb201	-0.07602311
84	0xbdc2235b	-0.094794
85	0xbd0f1720	-0.034934163
86	0xbce76e32	-0.028250787
87	0xbe51e26d	-0.20496531
88	0xbda38b08	-0.079855025
89	0xbeaee0bf	-0.34155843
90	0xbe974956	-0.29548138
91	0xbeb8028c	-0.35939443
92	0xbe842130	-0.2580657
93	0xbedef68b	-0.43547472
94	0xbedfab4a	-0.4368537
95	0xbe84f8a0	-0.25970936
96	0xbd99c630	-0.075085044
97	0xbf284651	-0.65732294
98	0xbf09e5ec	-0.5386646
99	0xbf01ecc1	-0.5075188
100	0xbea6443e	-0.3247394
101	0xbad1aac9	-0.0015996333
102	0xbec4775d	-0.38372317
103	0xbe3933cb	-0.18086164
104	0xbe43649d	-0.1908135
105	0xbe312510	-0.17299294
106	0xbdb8857d	-0.09009836
107	0xbe48b316	-0.19599566
108	0xbe5966c1	-0.21230604
109	0xbb64fc00	-0.0034940243
110	0xbee42d98	-0.44566035
111	0xbe05e464	-0.13075405
112	0xbe29d1e3	-0.16583972
113	0xbd6577bc	-0.05602239
114	0xbd540d08	-0.05177024
115	0xbe1aa235	-0.1510094
116	0xbe7506c9	-0.2392837
117	0xbdd4cd39	-0.103907056
118	0xbebc95ed	-0.36833134
119	0xbe64cfa9	-0.22344841
120	0xbb971912	-0.004611143
121	0xbe76aae5	-0.24088629
122	0xbb01d800	-0.0019812584
123	0xbe25ddbe	-0.16197869
124	0xbeb8f771	-0.36126283
125	0xbe23acf7	-0.1598395
126	0xbd6a0ada	-0.057139255
127	0xbe14a4c6	-0.14515981

fc2.weight f4 [128, 128]
0	0xbda0f03f	-0.07858323
1	0x3d80f72e	0.06297146
2	0x3cee0052	0.029052887
3	0xbd8bd888	-0.068284094
4	0xbda0b02a	-0.07846101
5	0xbd08bffc	-0.033386216
6	0xbd080f02	-0.033217438
7	0x3d79e2a4	0.061007157
8	0x3d430ed8	0.047621578
9	0xbd906fe2	-0.0705259
10	0x3cea713c	0.028618447
11	0xbc357b4d	-0.0110767605
12	0x3cfed3f8	0.031106934
13	0xbd13ce1f	-0.036085244
14	0xbd8ac3e8	-0.067756474
15	0x3abd3623	0.001443569
16	0x3d09fba6	0.033687256
17	0xbe0eb48f	-0.13936065
18	0xbdcc12df	-0.09964537
19	0x3cdced02	0.026968483
20	0xbd9b7ed0	-0.07592547
21	0x3d10f503	0.03538991
22	0x3c0003a9	0.007813373
23	0xbd489ecd	-0.04897957
24	0x3d40babb	0.04705308
25	0xbb0cda0f	-0.0021492278
26	0xbd2a2420	-0.041538358
27	0xbdae7e63	-0.085202
28	0xbd451409	-0.04811481
29	0x3d8295e9	0.06376249
30	0x3d5c675e	0.053809516
31	0xbb7a1ba9	-0.003816346
32	0xbceed1d8	-0.029152796
33	0xbe105a74	-0.14097005
34	0xbc07b1ba	-0.008282119
35	0xbdf9aeef	-0.12191569
36	0xbcba2a83	-0.02272535
37	0xbd1d78a9	-0.03844515
38	0xbd5a6c79	-0.053326104
39	0x3c17fc99	0.009276533
40	0xbc54290e	-0.012949241
41	0xbd5d9112	-0.054093428
42	0xbcec9d67	-0.028883649
43	0x3c145742	0.009054007
44	0xbd60dfa1	-0.05490077
45	0xbc85e65f	-0.016345201
46	0x3bc4e3bb	0.006008593
47	0x3d8226c1	0.06355048
48	0x3c809d36	0.015699964
49	0x3c06bcfa	0.008223766
50	0xbdd0d434	-0.101967245
51	0x3c961ee0	0.01832527
52	0x3d185d35	0.037198264
53	0xbd8e00c2	-0.06933738
54	0xbd7d033c	-0.061770663
55	0xbdc2cc0f	-0.09511577
56	0xbdc65fa1	-0.096862085
57	0xbd7d3422	-0.061817296
58	0xbd76b023	-0.06022657
59	0x3afe7f7f	0.0019416659
60	0xbe44fffe	-0.19238278
61	0xbdd2b652	-0.10288681
62	0x3d93cfb3	0.0721735
63	0x3c7f9257	0.015598855
64	0xbe2cee5a	-0.16887799
65	0xbd81e943	-0.06343319
66	0x3c99dc0b	0.018781682
67	0xbdae26e6	-0.08503513
68	0x3ca8ace1	0.020590248
69	0xbbf32eff	-0.007421374
70	0xbd288abe	-0.04114794
71	0x3c919114	0.017769374
72	0xbd6e5f4c	-0.05819635
73	0xbdedc171	-0.11609162
74	0xbcdb5e2c	-0.026778303
75	0xbe47e7f3	-0.19522075
76	0xbced6de2	-0.02898306
77	0xbe2c987c	-0.16855043
78	0xbd016e73	-0.031599473
79	0xbd8fd6c6	-0.07023387
80	0xbe163b49	-0.14671053
81	0xbdc0ac19	-0.09407825
82	0xbda82404	-0.082099944
83	0xbbe65876	-0.0070295883
84	0x3c8f30bd	0.017479295
85	0xbc61c7aa	-0.013780514
86	0xbb62cdec	-0.0034607602
87	0xbd9f2da1	-0.07772375
88	0x3c0c21f5	0.008553018
89	0xbd07230d	-0.03299241
90	0xbcacd0f4	-0.02109573
91	0xbd3b7d3d	-0.045773733
92	0xbd939b14	-0.07207313
93	0xbded25eb	-0.11579498
94	0xbd66164f	-0.05617362
95	0xbd5564b2	-0.052097984
96	0x3d98f282	0.0746813
97	0x3da21d8c	0.07915792
98	0xbdc79816	-0.09745805
99	0xbcb08a42	-0.021550301
100	0xbdb7473f	-0.08949136
101	0xbd41d0de	-0.047318332
102	0xbdbc4e68	-0.09194642
103	0xbdf50c15	-0.11965195
104	0xbd6bebe6	-0.057598017
105	0xbc35c5d1	-0.011094526
106	0xbd8476de	-0.064679846
107	0xbd222feb	-0.03959648
108	0xbc368f5a	-0.011142576
109	0x3db26f9c	0.08712694
110	0x3d136393	0.035983633
111	0xbb71904d	-0.0036859692
112	0xbd3fb126	-0.0467998
113	0xbdaf58d5	-0.08561865
114	0x3d9ef3af	0.07761323
115	0xbe731e89	-0.23742117
116	0xbcf9182d	-0.030407036
117	0x3cfeb4f6	0.031092148
118	0xbd4639f9	-0.04839513
119	0xbd8b2359	-0.067938514
120	0xbd53f370	-0.051745832
121	0xbe058db3	-0.13042335
122	0xbcf18bfb	-0.029485693
123	0x3c03005e	0.007995693
124	0xbc733568	-0.014844276
125	0x3d40a0e3	0.047028434
126	0x3c0d7d5f	0.008635848
127	0x3c147c3d	0.009062824
128	0xbc7b3c4f	-0.015334203
129	0xbd4271d2	-0.04747183
130	0xbd982416	-0.07428758
131	0x3d5d8ea6	0.05409112
132	0x3d8456f6	0.06461899
133	0x3cd32df0	0.02577874
134	0xbd4eddd8	-0.050504535
135	0x3d628900	0.055306435
136	0xbccfb1b6	-0.025353294
137	0x3d56f069	0.052475367
138	0xbc182828	-0.009286918
139	0xbd5e0bc1	-0.05421043
140	0xbcfb299b	-0.030659487
141	0xbda3b6f3	-0.07993879
142	0x3d354b6a	0.044261374
143	0xbdabeb18	-0.0839445
144	0x3c99f6fe	0.018794533
145	0xbd780b4e	-0.060557656
146	0xbdb82182	-0.08990766
147	0xbcd74407	-0.026277555
148	0xbc86412e	-0.016388502
149	0xbde81041	-0.11331225
150	0xbd1c5acc	-0.03817253
151	0xbc73dce9	-0.014884212
152	0xbd7c285a	-0.06156192
153	0x3c8e4d26	0.017370772
154	0xbe3464da	-0.17616597
155	0xbdcb848d	-0.099373914
156	0x39516faa	0.00019973391
157	0xbdd8b7bd	-0.1058192
158	0xbd2e9db6	-0.042630874
159	0xbd880844	-0.066422015
160	0xbdde77d5	-0.108627
161	0xbdbe124e	-0.09280835
162	0xbde3ded4	-0.111264855
163	0x3c2beae7	0.010493017
164	0x3d6f7bac	0.058467552
165	0x3c9947db	0.018711021
166	0xbde0318f	-0.109469526
167	0xbe50768b	-0.2035772
168	0x3cf74ee1	0.03018898
169	0x3b93dcea	0.004512419
170	0xbd1e21b1	-0.03860635
171	0xbc0f04ab	-0.00872914
172	0x3d24288b	0.040077727
173	0xbd0db801	-0.034599308
174	0x3c9b4340	0.018952966
175	0xbdb53519	-0.08848018
176	0x3d802c34	0.06258431
177	0x3c550c21	0.01300338
178	0xbd7558e1	-0.059899215
179	0x3d2731cb	0.04081897
180	0x3d0e801e	0.03479015
181	0x3d88a7c1	0.066726215
182	0x3d177b72	0.03698296
183	0xbe387777	-0.18014322
184	0xbb928ff8	-0.004472729
185	0xbd831ba5	-0.06401757
186	0xbe494235	-0.19654162
187	0xbde7ba9b	-0.11314889
188	0xbe29dbca	-0.16587749
189	0xbcabbce0	-0.020964086
190	0x3d8edf6f	0.0697621
191	0xbd1b71e6	-0.03795042
192	0xbcdea4d8	-0.027178213
193	0xbdc72dcd	-0.09725533
194	0x3cd5b941	0.026089313
195	0x3d388373	0.045047235
196	0x3c9b5160	0.018959701
197	0xbdce8a46	-0.10084967
198	0xbd404471	-0.04694027
199	0xbd17010c	-0.036866233
200	0xbdc6c480	-0.09705448
201	0xbd4fc567	-0.050725367
202	0xbc512761	-0.012765736
203	0xbe054dda	-0.1301798
204	0xbdab96df	-0.08378386
205	0xbd957cbd	-0.072991826
206	0x3bcb1782	0.0061978707
207	0xbdaaa1df	-0.08331656
208	0xbe02590f	-0.12729286
209	0x3da3b524	0.07993534
210	0xbd605904	-0.054772392
211	0xbc96261a	-0.018328715
212	0x3d9a9ee6	0.07549839
213	0x3d930d80	0.07180309
214	0xbcef5aaa	-0.029218037
215	0xbd7b8f6a	-0.061416067
216	0xbd71d1ef	-0.0590381
217	0x3c042452	0.0080653
218	0xbda21e03	-0.079158805
219	0xbcdc537a	-0.026895273
220	0xbd8d85e0	-0.069103
221	0xbaea131b	-0.0017858477
222	0xbda83521	-0.082132585
223	0x3da3c477	0.07996457
224	0xbde72dc8	-0.11288029
225	0xbe4066a2	-0.18789151
226	0xbd585681	-0.05281687
227	0xbd7afaf4	-0.061274484
228	0x3ce67b20	0.028134882
229	0xbd20d2a0	-0.039263368
230	0xbce2500c	-0.02762606
231	0x3b5e9fa5	0.0033969667
232	0xbdb4ada6	-0.08822183
233	0xbd50b851	-0.050957028
234	0xbc756023	-0.014976534
235	0xbdaff865	-0.08592299
236	0xbd8ea4ab	-0.06965002
237	0xbd5c333a	-0.05375979
238	0x3c79b968	0.015241958
239	0x3d8dfb52	0.06932701
240	0x3d4485c5	0.047979135
241	0x3d5c438e	0.053775363
242	0xbd8c3927	-0.068468384
243	0xbe89b457	-0.268954
244	0xbc1d7ba0	-0.009611994
245	0x3cb8acfd	0.022543425
246	0xbe1d42ef	-0.15357564
247	0x3d90f55a	0.07078047
248	0xbdf09a93	-0.11748233
249	0xbd646d29	-0.055768166
250	0xbd8619e8	-0.0654791
251	0x3d17b980	0.03704214
252	0xbc6bf073	-0.014400589
253	0x3d78e8dd	0.06076895
254	0x3d17d6f8	0.037070245
255	0xbd2bdc00	-0.041957855

fc2.bias f4 [128]
0	0xbe8c5620	-0.27409458
1	0xbebc22d7	-0.3674533
2	0xbe5f4c16	-0.21806368
3	0xbe8df5c3	-0.27726564
4	0xbe8e5f32	-0.27807003
5	0xbebbb6f3	-0.36663017
6	0xbde54b21	-0.1119597
7	0xbd895f0f	-0.06707584
8	0xbd9b87a9	-0.075942345
9	0xbf186d6d	-0.5954197
10	0xbefa8064	-0.4892608
11	0xbef4a55b	-0.47782406
12	0xbe0bdb2a	-0.13657823
13	0xbe63c618	-0.22243536
14	0xbe2364d7	-0.15956436
15	0xbe7caa7b	-0.24674408
16	0xbeff9e82	-0.4992562
17	0xbeb416d5	-0.3517367
18	0xbed394a8	-0.41324353
19	0xbe30dcfa	-0.17271796
20	0xbee0e052	-0.43921143
21	0xbafb1ede	-0.0019158979
22	0xbe55b36c	-0.20869225
23	0xbe322bfb	-0.1739959
24	0xbe2b9e38	-0.16759574
25	0xbf082c20	-0.5319233
26	0xbefbe0ef	-0.49195048
27	0xbf146817	-0.5797133
28	0xbebd721e	-0.37001127
29	0xbf381062	-0.719
30	0xbcee269f	-0.02907115
31	0xbdcd13c6	-0.10013537
32	0xbda531b5	-0.080661215
33	0xbe43500a	-0.19073501
34	0xbf1abffa	-0.60449183
35	0xbed323c9	-0.4123824
36	0xbe46a90e	-0.19400427
37	0xbe77873e	-0.24172685
38	0xbebad9de	-0.36494344
39	0xbf0839d1	-0.5321322
40	0xbb6ddae9	-0.003629381
41	0xbf367216	-0.7126783
42	0xbe406637	-0.18788992
43	0xbb18e757	-0.0023331249
44	0xbc98cfe1	-0.018653812
45	0xbed18ea6	-0.40929145
46	0xbdd298cb	-0.10283049
47	0xbeac21f1	-0.33619645
48	0xbe2fe595	-0.17177422
49	0xbd23065a	-0.03980098
50	0xbc1fb9bb	-0.009748871
51	0xbedbc4af	-0.42923495
52	0xbea4a8b9	-0.32159975
53	0xbe28574c	-0.16439551
54	0xbf0421f4	-0.5161431
55	0xbe529202	-0.2056351
56	0xbe8907e2	-0.26763827
57	0xbf0f1eb0	-0.559062
58	0xbeede9e8	-0.4646752
59	0xbdd5a99c	-0.10432741
60	0xbf15ce2d	-0.58517724
61	0xbe857184	-0.26063168
62	0xbc93252a	-0.017962057
63	0xbe1854b6	-0.14876065
64	0xbf041bda	-0.51605
65	0xbf0fceed	-0.5617512
66	0xbe9177f7	-0.28411838
67	0xbd041b06	-0.032252334
68	0xbe93597d	-0.28779212
69	0xbd6150b9	-0.055008624
70	0xbe1d15e9	-0.1534039
71	0xbf101459	-0.5628105
72	0xbeaac4ab	-0.3335317
73	0xbeacb4df	-0.33731744
74	0xbe6dec97	-0.23234783
75	0xbc141acf	-0.009039595
76	0xbe4a8afe	-0.19779584
77	0xbd85d0c8	-0.065339625
78	0xbcdd96ee	-0.027049508
79	0xbe863a75	-0.26216474
80	0xbe8ab1a5	-0.27088657
81	0xbeb672d1	-0.35634473
82	0xbec69bff	-0.3879089
83	0xbe9ac7b0	-0.30230474
84	0xbefb5e02	-0.4909516
85	0xbf07aba5	-0.52996284
86	0xbe9ea151	-0.3098245
87	0xbe3073ea	-0.17231718
88	0xbdbced38	-0.092249334
89	0xbe75788f	-0.2397177
90	0xbf0cd002	-0.55004895
91	0xbe887077	-0.26648304
92	0xbd94c85f	-0.0726478
93	0xbe8bd4e0	-0.27310848
94	0xbea93cbd	-0.33054152
95	0xbe45773e	-0.19283769
96	0xbe16142f	-0.14656137
97	0xbe9ff15b	-0.31238827
98	0xbe2b9d82	-0.16759303
99	0xbe99a3d0	-0.30007792
100	0xbe715842	-0.23568824
101	0xbe866645	-0.262499
102	0xbf328d1b	-0.6974656
103	0xbbdc30c2	-0.0067196796
104	0xbe252fd7	-0.1613153
105	0xbd3441bc	-0.044008
106	0xbecc1d0c	-0.3986591
107	0xbe492df9	-0.19646443
108	0xbeb8c0b9	-0.36084536
109	0xc039b4e3	-2.9016654
110	0xbe495025	-0.19659479
111	0xbe606d6e	-0.21916744
112	0xbe89948e	-0.2687115
113	0xbe9e031f	-0.30861756
114	0xbf02d8a7	-0.51111835
115	0xbf32d349	-0.69853646
116	0xbe28e171	-0.16492249
117	0xbdee8cad	-0.116479255
118	0xbea9494e	-0.3306374
119	0xbe47ce08	-0.19512188
120	0xbe324c7d	-0.1741199
121	0xbe20127c	-0.15632051
122	0xbf1014e4	-0.56281877
123	0xbf098c9e	-0.5373019
124	0x406b74ce	3.6790042
125	0xbe4145e8	-0.18874323
126	0xbe5980fe	-0.21240613
127	0xbef837a9	-0.48479965

fc3.weight f4 [3, 128]
0	0x3db116de	0.0864694
1	0x3d0211bd	0.031755198
2	0x3e18f04a	0.14935413
3	0x3ca50f65	0.020148942
4	0x3c422ba1	0.011851222
5	0xbd89e255	-0.067326225
6	0xbd29c0a7	-0.041443493
7	0xbd5af113	-0.053452563
8	0xba5b111c	-0.00083567365
9	0xbe12bd66	-0.14330062
10	0x3cafa58a	0.02144124
11	0xbae5f2ac	-0.0017543635
12	0xbe1689f5	-0.14701064
13	0xbbb0ce07	-0.005395654
14	0xbdbe44e3	-0.09290483
15	0xbc80df1e	-0.01573139
16	0x3daf10f8	0.085481584
17	0xbe1a0162	-0.1503959
18	0xbb092247	-0.0020924972
19	0x3c53b716	0.012922069
20	0xbd474289	-0.048647437
21	0x3c80aa3f	0.01570618
22	0xbd88b457	-0.06675022
23	0xbcd63288	-0.026147142
24	0xbc797340	-0.015225232
25	0x3c8c8542	0.017153386
26	0xbd362b9e	-0.04447519
27	0xbcb2db4a	-0.02183308
28	0x3e112151	0.14172865
29	0x3e1d0396	0.15333399
30	0x3a211457	0.00061446935
31	0x3e5bf2a1	0.21479274
32	0xbd65cd95	-0.05610426
33	0xbc811d74	-0.015761115
34	0x3e17aa24	0.14810997
35	0xbcb3719b	-0.021904757
36	0xbb9febd5	-0.0048804083
37	0x3d246416	0.040134512
38	0xbdfc1a7d	-0.1230974
39	0x3d2ae513	0.04172237
40	0xbec1f915	-0.37885347
41	0x3dd87f71	0.105711825
42	0x3aff7d74	0.0019492344
43	0xbeaf5eb9	-0.34251955
44	0x3eb53b88	0.3539698
45	0x3d6c82ac	0.057741806
46	0xbca899ce	-0.020581152
47	0x3cd11c12	0.02552608
48	0xbd8214d7	-0.06351631
49	0x3d2b422e	0.04181116
50	0xbdac2811	-0.084060796
51	0xbcc9c3f4	-0.02462957
52	0x3e07ab46	0.1324893
53	0xbd78fd76	-0.060788594
54	0x3c5bc402	0.013413431
55	0xbba64c5e	-0.0050750216
56	0xbdf867c8	-0.1212917
57	0xbc2b6884	-0.01046193
58	0xbcaa477c	-0.02078604
59	0x3d826e3a	0.0636868
60	0x3c9a7472	0.018854354
61	0x3db6d529	0.08927376
62	0x3c04c687	0.008103973
63	0xbe145021	-0.14483692
64	0xba70bbaa	-0.00091832376
65	0xbdd12d98	-0.102137744
66	0xbda96202	-0.08270647
67	0xbd3f70e1	-0.04673851
68	0xbcebee44	-0.028800137
69	0xbc3809e8	-0.011232831
70	0xbcbba49d	-0.022905642
71	0xbdc63ae2	-0.096792
72	0xb983f508	-0.0002516883
73	0xbd25060e	-0.040288977
74	0x3e2088b1	0.15677144
75	0xbcd0f5a1	-0.02550775
76	0x3d6aaf0d	0.057295848
77	0xbb510821	-0.0031895714
78	0xbd9c6749	-0.076368876
79	0x3c8c2127	0.017105652
80	0x3c41f8d1	0.011839108
81	0x3c7ad84d	0.015310359
82	0xbc89a019	-0.016799973
83	0x3cf58ad8	0.029973432
84	0xbc75237f	-0.014962076
85	0xbe03fda3	-0.12889723
86	0x3c926ca0	0.017874062
87	0x3e1a7241	0.15082647
88	0xbc89fa9a	-0.016843129
89	0x3d91677f	0.070998184
90	0x3e03d957	0.12875877
91	0xbc4dc518	-0.012559198
92	0xbdfad65a	-0.122479156
93	0xbbebb428	-0.007193107
94	0x3e179b83	0.14805417
95	0x3d8b7f2a	0.06811364
96	0x3bff605e	0.0077934703
97	0x3c1bc5fc	0.009507652
98	0x3e1ce6f3	0.15322475
99	0x3d427562	0.047475226
100	0x3c826cbd	0.015920991
101	0x3d1d54ef	0.038411077
102	0x3d02971a	0.031882383
103	0x3b766143	0.0037594594
104	0xbda2ea4b	-0.07954844
105	0xbc955887	-0.01823069
106	0x3d89c377	0.06726735
107	0x3c33a9da	0.010965789
108	0x3d7dae09	0.06193355
109	0xbd78da87	-0.06075528
110	0xbd492761	-0.04910982
111	0x3dff3c7e	0.1246271
112	0x3ddd0a5a	0.1079299
113	0x3dfb87ca	0.12281759
114	0x3cd82206	0.026383411
115	0x3d850b9a	0.064963534
116	0x3ed59638	0.4171617
117	0xbc123487	-0.008923656
118	0x3a2c7458	0.0006578616
119	0x3c62fb2a	0.0138538275
120	0x3e12d663	0.14339595
121	0xbb19d0ca	-0.0023470395
122	0xbe4590fb	-0.19293587
123	0xbca725d1	-0.020403774
124	0x3c10a08c	0.00882734
125	0x39e6d96c	0.0004403101
126	0xbe4e7b50	-0.20164227
127	0x3d72b77a	0.059257008
128	0x3d3ff3ba	0.046863295
129	0x3dd52439	0.104072995
130	0x3e4e650c	0.20155734
131	0x3b97c9de	0.0046322187
132	0x3c62f162	0.013851495
133	0x3e0afc21	0.13572742
134	0xbcfd9b01	-0.0309577
135	0x3d9cedda	0.07662554
136	0xbbcc3cdc	-0.006232841
137	0xbd7c93c2	-0.06166435
138	0xbcf5f7f8	-0.030025467
139	0x3bc6e011	0.0060691913
140	0xbe5e0cd8	-0.21684587
141	0x3bac079c	0.0052499305
142	0xbdc839db	-0.0977666
143	0xbc15fc11	-0.009154336
144	0xbccafcf7	-0.024778826
145	0x3dcf8b45	0.101339854
146	0x3a40e0e1	0.00073577283
147	0x3cc8b54a	0.024500508
148	0xbc7abaeb	-0.015303354
149	0xbdd97120	-0.1061728
150	0xbc09b7ff	-0.0084056845
151	0xbc9d512c	-0.019203745
152	0x3c25338a	0.010083089
153	0x3e087854	0.13327152
154	0xbd772e3c	-0.060346827
155	0xbd098b00	-0.033579826
156	0xbc66d038	-0.014087729
157	0x3d9bb5c9	0.07603032
158	0xbb9b0465	-0.0047307485
159	0xbf1139b3	-0.5672867
160	0x3c4c144b	0.01245601
161	0x3d32b2ca	0.043627538
162	0xbd99f32b	-0.07517084
163	0xbd3e4f07	-0.046462085
164	0xba0643a0	-0.0005121771
165	0x3d1cb915	0.038262445
166	0x3c3fb02b	0.011699717
167	0x3de21e98	0.110409915
168	0xbf1d948c	-0.6155479
169	0x3d832666	0.06403808
170	0x3d95715d	0.07297013
171	0xbf0a701c	-0.54077315
172	0xbf17d013	-0.5930187
173	0x3e14cc08	0.14530957
174	0x3ccac9a9	0.024754362
175	0xbd7d8a64	-0.061899558
176	0xbd8a1a05	-0.06743244
177	0xbc6a7cba	-0.014311964
178	0xbeec1f01	-0.46117404
179	0xbd14e56c	-0.036351606
180	0x3bb359a0	0.0054733306
181	0x3e1d2c52	0.15348938
182	0xbe1cfdb0	-0.15331149
183	0x3d532423	0.051548135
184	0x3e126d9c	0.14299625
185	0x3e0faf59	0.14031734
186	0xbd4fd249	-0.050737653
187	0x3cc5830b	0.024110338
188	0xbc17075d	-0.009218064
189	0x3e2860ba	0.16443148
190	0xbbf6591b	-0.0075179464
191	0xbe8ad696	-0.2711684
192	0x3cf178c1	0.029476525
193	0x3d090c59	0.03345904
194	0x3daae119	0.08343715
195	0x3ce444fe	0.02786493
196	0x3d1f57fe	0.038902275
197	0xbbf956f5	-0.007609243
198	0xbd0eddcb	-0.034879487
199	0xbdac12f3	-0.08402052
200	0x3dcfcb1a	0.101461604
201	0x3e1b90d4	0.15191966
202	0x3dabd13f	0.0838952
203	0xbe49bea6	-0.19701633
204	0x3ccac591	0.02475241
205	0x3db63ed0	0.08898699
206	0x3b1bede8	0.0023792926
207	0xbd3561fa	-0.04428289
208	0xbd85a303	-0.06525233
209	0x3d310ef4	0.04322715
210	0xbe954ba8	-0.29159284
211	0xbc24b6d2	-0.010053353
212	0x3de259fb	0.11052319
213	0xbe110b80	-0.14164543
214	0x3e2a9986	0.16660127
215	0x3e11ec14	0.14250213
216	0xbe0abd36	-0.1354874
217	0x3d180ba7	0.037120488
218	0x3cce3de6	0.025176
219	0x3deda6cc	0.116040796
220	0x3e5b6180	0.21423912
221	0x3d066d85	0.03281929
222	0xba657190	-0.0008752579
223	0xbd3197d8	-0.0433577
224	0x39f91689	0.0004750977
225	0xbce8994a	-0.028393406
226	0x3cd5bf96	0.026092332
227	0xbd14705f	-0.036239978
228	0xbcf9692f	-0.030445663
229	0x3d8da2e9	0.06915838
230	0x3e0f0e57	0.13970314
231	0xbdfc0500	-0.12305641
232	0xbc0d63f6	-0.00862979
233	0xbbdeb224	-0.0067961384
234	0x3b108209	0.0022050163
235	0x3e05bd23	0.13060431
236	0xbd9e8f5a	-0.07742186
237	0xbd6b71fe	-0.05748176
238	0xbc21966d	-0.009862524
239	0x3db9d429	0.090736695
240	0xbd8ff58c	-0.07029256
241	0xb93f7dbd	-0.0001826202
242	0xbc1375f5	-0.009000291
243	0x3d9a13a3	0.07523277
244	0xbecedaac	-0.40401208
245	0xbd7aa8fd	-0.061196316
246	0xbd18e498	-0.03732738
247	0x3e1f6d87	0.15569125
248	0xbd4bd3ef	-0.049762663
249	0x3dd4823a	0.10376401
250	0xbdf14fbb	-0.117827855
251	0x3de3740b	0.11106118
252	0x3ec01dec	0.3752283
253	0x3d99efb7	0.07516425
254	0x3cb347e1	0.02188486
255	0xbc8bfc1e	-0.017087992

fc3.bias f4 [3]
0	0x3f01fe99	0.5077911
1	0xbf2d6512	-0.67732346
2	0xbe7a505a	-0.24444714
